…
"group_restricted": false, "color_restricted": false, "Node name for S&R": "Anything Everywhere"}, "widgets_values": ["Latent shape torch.Size([1, 4, 64, 96])"]}, {"id": 42, "type": "Anything Everywhere", "pos": [4800, 1440], "size": {"0": 240, "1": 60}, "flags": {}, "order": 26, "mode": 0, "inputs": [{"name": "UPSCALE_MODEL", "type": "*", "link": 34, "slot_index": 0, "color_on": ""}], "title": "Upscale Model Everywhere", "properties": {"group_restricted": false, "color_restricted": false, "Node name for S&R": "Anything Everywhere"}, "widgets_values": ["RRDBNet(\n  (model): Sequential(\n    (0): Conv2d(3, 64, kernel_size=(3, 3), stride=(1, 1), padding=(1, 1))\n    (1): Identity + \n    |Sequential(\n    |  (0): RRDB(\n    |    (RDB1): ResidualDenseBlock_5C(\n    |      (conv1): Sequential(\n    |        (0): Conv2d(64, 32, kernel_size=(3, 3), stride=(1, 1), padding=(1, 1))\n    |        (1): LeakyReLU(negative_slope=0.2, inplace=True)\n    |      )\n    |      (conv2): Sequential(\n    |        (0): Conv2d(96, 32, kernel_size=(3, 3), stride=(1, 1), padding=(1, 1))\n    |        (1): LeakyReLU(negative_slope=0.2, inplace=True)\n    |      )\n    |      (conv3): Sequential(\n    |        (0): Conv2d(128, 32, kernel_size=(3, 3), stride=(1, 1), padding=(1, 1))\n    |        (1): LeakyReLU(negative_slope=0.2, inplace=True)\n    |      )\n    |      (conv4): Sequential(\n    |        (0): Conv2d(160, 32, kernel_size=(3, 3), stride=(1, 1), padding=(1, 1))\n    |        (1): LeakyReLU(negative_slope=0.2, inplace=True)\n    |      )\n    |      (conv5): Sequential(\n    |        (0): Conv2d(192, 64, kernel_size=(3, 3), stride=(1, 1), padding=(1, 1))\n    |      )\n    |    )\n    |    (RDB2): ResidualDenseBlock_5C(\n    |      (conv1): Sequential(\n    |        (0): Conv2d(64, 32, kernel_size=(3, 3), stride=(1, 1), padding=(1, 1))\n    |        (1): LeakyReLU(negative_slope=0.2, inplace=True)\n    |      )\n    |      (conv2): Sequential(\n    |        (0): Conv2d(96, 32, kernel_size=(3, 3), stride=(1, 1), padding=(1, 1))\n    |        (1): LeakyReLU(negative_slope=0.2, inplace=True)\n    |      )\n    |      (conv3): Sequential(\n    |        (0): Conv2d(128, 32, kernel_size=(3, 3), stride=(1, 1), padding=(1, 1))\n    |        (1): LeakyReLU(negative_slope=0.2, inplace=True)\n    |      )\n    |      (conv4): Sequential(\n    |        (0): Conv2d(160, 32, kernel_size=(3, 3), stride=(1, 1), padding=(1, 1))\n    |        (1): LeakyReLU(negative_slope=0.2, inplace=True)\n    |      )\n    |      (conv5): Sequential(\n    |        (0): Conv2d(192, 64, kernel_size=(3, 3), stride=(1, 1), padding=(1, 1))\n    |      )\n    |    )\n    |    (RDB3): ResidualDenseBlock_5C(\n    |      (conv1): Sequential(\n    |        (0): Conv2d(64, 32, kernel_size=(3, 3), stride=(1, 1), padding=(1, 1))\n    |        (1): LeakyReLU(negative_slope=0.2, inplace=True)\n    |      )\n    |      (conv2): Sequential(\n    |        (0): Conv2d(96, 32, kernel_size=(3, 3), stride=(1, 1), padding=(1, 1))\n    |        (1): LeakyReLU(negative_slope=0.2, inplace=True)\n    |      )\n    |      (conv3): Sequential(\n    |        (0): Conv2d(128, 32, kernel_size=(3, 3), stride=(1, 1), padding=(1, 1))\n    |        (1): LeakyReLU(negative_slope=0.2, inplace=True)\n    |      )\n    |      (conv4): Sequential(\n    |        (0): Conv2d(160, 32, kernel_size=(3, 3), stride=(1, 1), padding=(1, 1))\n    |        (1): LeakyReLU(negative_slope=0.2, inplace=True)\n    |      )\n    |      (conv5): Sequential(\n    |        (0): Conv2d(192, 64, kernel_size=(3, 3), stride=(1, 1), padding=(1, 1))\n    |      )\n    |    )\n    |  )\n    |  (1): RRDB(\n    |    (RDB1): ResidualDenseBlock_5C(\n    |      (conv1): Sequential(\n    |        (0): Conv2d(64, 32, kernel_size=(3, 3), stride=(1, 1), padding=(1, 1))\n    |        (1): LeakyReLU(negative_slope=0.2, inplace=True)\n    |      )\n    |      (conv2): Sequential(\n    |        (0): Conv2d(96, 32, kernel_size=(3, 3), stride=(1, 1), padding=(1, 1))\n    |        (1): LeakyReLU(negative_slope=0.2, inplace=True)\n    |      )\n    |      (conv3): Sequential(\n    |        (0): Conv2d(128, 32, kernel_size=(3, 3), stride=(1, 1), padding=(1, 1))\n    |        (1): LeakyReLU(negative_slope=0.2, inplace=True)\n    |      )\n    |      (conv4): Sequential(\n    |        (0): Conv2d(160, 32, kernel_size=(3, 3), stride=(1, 1), padding=(1, 1))\n    |        (1): LeakyReLU(negative_slope=0.2, inplace=True)\n    |      )\n    |      (conv5): Sequential(\n    |        (0): Conv2d(192, 64, kernel_size=(3, 3), stride=(1, 1), padding=(1, 1))\n    |      )\n    |    )\n    |    (RDB2): ResidualDenseBlock_5C(\n    |      (conv1): Sequential(\n    |        (0): Conv2d(64, 32, kernel_size=(3, 3), stride=(1, 1), padding=(1, 1))\n    |        (1): LeakyReLU(negative_slope=0.2, inplace=True)\n    |      )\n    |      (conv2): Sequential(\n    |        (0): Conv2d(96, 32, kernel_size=(3, 3), stride=(1, 1), padding=(1, 1))\n    |        (1): LeakyReLU(negative_slope=0.2, inplace=True)\n    |      )\n    |      (conv3): Sequential(\n    |        (0): Conv2d(128, 32, kernel_size=(3, 3), stride=(1, 1), padding=(1, 1))\n    |        (1): LeakyReLU(negative_slope=0.2, inplace=True)\n    |      )\n    |      (conv4): Sequential(\n    |        (0): Conv2d(160, 32, kernel_size=(3, 3), stride=(1, 1), padding=(1, 1))\n    |        (1): LeakyReLU(negative_slope=0.2, inplace=True)\n    |      )\n    |      (conv5): Sequential(\n    |        (0): Conv2d(192, 64, kernel_size=(3, 3), stride=(1, 1), padding=(1, 1))\n    |      )\n    |    )\n    |    (RDB3): ResidualDenseBlock_5C(\n    |      (conv1): Sequential(\n    |        (0): Conv2d(64, 32, kernel_size=(3, 3), stride=(1, 1), padding=(1, 1))\n    |        (1): LeakyReLU(negative_slope=0.2, inplace=True)\n    |      )\n    |      (conv2): Sequential(\n    |        (0): Conv2d(96, 32, kernel_size=(3, 3), stride=(1, 1), padding=(1, 1))\n    |        (1): LeakyReLU(negative_slope=0.2, inplace=True)\n    |      )\n    |      (conv3): Sequential(\n    |        (0): Conv2d(128, 32, kernel_size=(3, 3), stride=(1, 1), padding=(1, 1))\n    |        (1): LeakyReLU(negative_slope=0.2, inplace=True)\n    |      )\n    |      (conv4): Sequential(\n    |        (0): Conv2d(160, 32, kernel_size=(3, 3), stride=(1, 1), padding=(1, 1))\n    |        (1): LeakyReLU(negative_slope=0.2, inplace=True)\n    |      )\n    |      (conv5): Sequential(\n    |        (0): Conv2d(192, 64, kernel_size=(3, 3), stride=(1, 1), padding=(1, 1))\n    |      )\n    |    )\n    |  )\n    |  (2): RRDB(\n    |    (RDB1): ResidualDenseBlock_5C(\n    |      (conv1): Sequential(\n    |        (0): Conv2d(64, 32, kernel_size=(3, 3), stride=(1, 1), padding=(1, 1))\n    |        (1): LeakyReLU(negative_slope=0.2, inplace=True)\n    |      )\n    |      (conv2): Sequential(\n    |        (0): Conv2d(96, 32, kernel_size=(3, 3), stride=(1, 1), padding=(1, 1))\n    |        (1): LeakyReLU(negative_slope=0.2, inplace=True)\n    |      )\n    |      (conv3): Sequential(\n    |        (0): Conv2d(128, 32, kernel_size=(3, 3), stride=(1, 1), padding=(1, 1))\n    |        (1): LeakyReLU(negative_slope=0.2, inplace=True)\n    |      )\n    |      (conv4): Sequential(\n    |        (0): Conv2d(160, 32, kernel_size=(3, 3), stride=(1, 1), padding=(1, 1))\n    |        (1): LeakyReLU(negative_slope=0.2, inplace=True)\n    |      )\n    |      (conv5): Sequential(\n    |        (0): Conv2d(192, 64, kernel_size=(3, 3), stride=(1, 1), padding=(1, 1))\n    |      )\n    |    )\n    |    (RDB2): ResidualDenseBlock_5C(\n    |      (conv1): Sequential(\n    |        (0): Conv2d(64, 32, kernel_size=(3, 3), stride=(1, 1), padding=(1, 1))\n    |        (1): LeakyReLU(negative_slope=0.2, inplace=True)\n    |      )\n    |      (conv2): Sequential(\n    |        (0): Conv2d(96, 32, kernel_size=(3, 3), stride=(1, 1), padding=(1, 1))\n    |        (1): LeakyReLU(negative_slope=0.2, inplace=True)\n    |      )\n    |      (conv3): Sequential(\n    |        (0): Conv2d(128, 32, kernel_size=(3, 3), stride=(1, 1), padding=(1, 1))\n    |        (1): LeakyReLU(negative_slope=0.2, inplace=True)\n    |      )\n    |      (conv4): Sequential(\n    |        (0): Conv2d(160, 32, kernel_size=(3, 3), stride=(1, 1), padding=(1, 1))\n    |        (1): LeakyReLU(negative_slope=0.2, inplace=True)\n    |      )\n    |      (conv5): Sequential(\n    |        (0): Conv2d(192, 64, kernel_size=(3, 3), stride=(1, 1), padding=(1, 1))\n    |      )\n    |    )\n    |    (RDB3): ResidualDenseBlock_5C(\n    |      (conv1): Sequential(\n    |        (0): Conv2d(64, 32, kernel_size=(3, 3), stride=(1, 1), padding=(1, 1))\n    |        (1): LeakyReLU(negative_slope=0.2, inplace=True)\n    |      )\n    |      (conv2): Sequential(\n    |        (0): Conv2d(96, 32, kernel_size=(3, 3), stride=(1, 1), padding=(1, 1))\n    |        (1): LeakyReLU(negative_slope=0.2, inplace=True)\n    |      )\n    |      (conv3): Sequential(\n    |        (0): Conv2d(128, 32, kernel_size=(3, 3), stride=(1, 1), padding=(1, 1))\n    |        (1): LeakyReLU(negative_slope=0.2, inplace=True)\n    |      )\n    |      (conv4): Sequential(\n    |        (0): Conv2d(160, 32, kernel_size=(3, 3), stride=(1, 1), padding=(1, 1))\n    |        (1): LeakyReLU(negative_slope=0.2, inplace=True)\n    |      )\n    |      (conv5): Sequential(\n    |        (0): Conv2d(192, 64, kernel_size=(3, 3), stride=(1, 1), padding=(1, 1))\n    |      )\n    |    )\n    |  )\n    |  (3): RRDB(\n    |    (RDB1): ResidualDenseBlock_5C(\n    |      (conv1): Sequential(\n    |        (0): Conv2d(64, 32, kernel_size=(3, 3), stride=(1, 1), padding=(1, 1))\n    |        (1): LeakyReLU(negative_slope=0.2, inplace=True)\n    |      )\n    |      (conv2): Sequential(\n    |        (0): Conv2d(96, 32, kernel_size=(3, 3), stride=(1, 1), padding=(1, 1))\n    |        (1): LeakyReLU(negative_slope=0.2, inplace=True)\n    |      )\n    |      (conv3): Sequential(\n    |        (0): Conv2d(128, 32, kernel_size=(3, 3), stride=(1, 1), padding=(1, 1))\n    |        (1): LeakyReLU(negative_slope=0.2, inplace=True)\n    |      )\n    |      (conv4): Sequential(\n    |        (0): Conv2d(160, 32, kernel_size=(3, 3), stride=(1, 1), padding=(1, 1))\n    |        (1): LeakyReLU(negative_slope=0.2, inplace=True)\n    |      )\n    |      (conv5): Sequential(\n    |        (0): Conv2d(192, 64, kernel_size=(3, 3), stride=(1, 1), padding=(1, 1))\n    |      )\n    |    )\n    |    (RDB2): ResidualDenseBlock_5C(\n    |      (conv1): Sequential(\n    |        (0): Conv2d(64, 32, kernel_size=(3, 3), stride=(1, 1), padding=(1, 1))\n    |        (1): LeakyReLU(negative_slope=0.2, inplace=True)\n    |      )\n    |      (conv2): Sequential(\n    |        (0): Conv2d(96, 32, kernel_size=(3, 3), stride=(1, 1), padding=(1, 1))\n    |        (1): LeakyReLU(negative_slope=0.2, inplace=True)\n    |      )\n    |      (conv3): Sequential(\n    |        (0): Conv2d(128, 32, kernel_size=(3, 3), stride=(1, 1), padding=(1, 1))\n    |        (1): LeakyReLU(negative_slope=0.2, inplace=True)\n    |      )\n    |      (conv4): Sequential(\n    |        (0): Conv2d(160, 32, kernel_size=(3, 3), stride=(1, 1), padding=(1, 1))\n    |        (1): LeakyReLU(negative_slope=0.2, inplace=True)\n    |      )\n    |      (conv5): Sequential(\n    |        (0): Conv2d(192, 64, kernel_size=(3, 3), stride=(1, 1), padding=(1, 1))\n    |      )\n    |    )\n    |    (RDB3): ResidualDenseBlock_5C(\n    |      (conv1): Sequential(\n    |        (0): Conv2d(64, 32, kernel_size=(3, 3), stride=(1, 1), padding=(1, 1))\n    |        (1): LeakyReLU(negative_slope=0.2, inplace=True)\n    |      )\n    |      (conv2): Sequential(\n    |        (0): Conv2d(96, 32, kernel_size=(3, 3), stride=(1, 1), padding=(1, 1))\n    |        (1): LeakyReLU(negative_slope=0.2, inplace=True)\n    |      )\n    |      (conv3): Sequential(\n    |        (0): Conv2d(128, 32, kernel_size=(3, 3), stride=(1, 1), padding=(1, 1))\n    |        (1): LeakyReLU(negative_slope=0.2, inplace=True)\n    |      )\n    |      (conv4): Sequential(\n    |        (0): Conv2d(160, 32, kernel_size=(3, 3), stride=(1, 1), padding=(1, 1))\n    |        (1): LeakyReLU(negative_slope=0.2, inplace=True)\n    |      )\n    |      (conv5): Sequential(\n    |        (0): Conv2d(192, 64, kernel_size=(3, 3), stride=(1, 1), padding=(1, 1))\n    |      )\n    |    )\n    |  )\n    |  (4): RRDB(\n    |    (RDB1): ResidualDenseBlock_5C(\n    |      (conv1): Sequential(\n    |        (0): Conv2d(64, 32, kernel_size=(3, 3), stride=(1, 1), padding=(1, 1))\n    |        (1): LeakyReLU(negative_slope=0.2, inplace=True)\n    |      )\n    |      (conv2): Sequential(\n    |        (0): Conv2d(96, 32, kernel_size=(3, 3), stride=(1, 1), padding=(1, 1))\n    |        (1): LeakyReLU(negative_slope=0.2, inplace=True)\n    |      )\n    |      (conv3): Sequential(\n    |        (0): Conv2d(128, 32, kernel_size=(3, 3), stride=(1, 1), padding=(1, 1))\n    |        (1): LeakyReLU(negative_slope=0.2, inplace=True)\n    |      )\n    |      (conv4): Sequential(\n    |        (0): Conv2d(160, 32, kernel_size=(3, 3), stride=(1, 1), padding=(1, 1))\n    |        (1): LeakyReLU(negative_slope=0.2, inplace=True)\n    |      )\n    |      (conv5): Sequential(\n    |        (0): Conv2d(192, 64, kernel_size=(3, 3), stride=(1, 1), padding=(1, 1))\n    |      )\n    |    )\n    |    (RDB2): ResidualDenseBlock_5C(\n    |      (conv1): Sequential(\n    |        (0): Conv2d(64, 32, kernel_size=(3, 3), stride=(1, 1), padding=(1, 1))\n    |        (1): LeakyReLU(negative_slope=0.2, inplace=True)\n    |      )\n    |      (conv2): Sequential(\n    |        (0): Conv2d(96, 32, kernel_size=(3, 3), stride=(1, 1), padding=(1, 1))\n    |        (1): LeakyReLU(negative_slope=0.2, inplace=True)\n    |      )\n    |      (conv3): Sequential(\n    |        (0): Conv2d(128, 32, kernel_size=(3, 3), stride=(1, 1), padding=(1, 1))\n    |        (1): LeakyReLU(negative_slope=0.2, inplace=True)\n    |      )\n    |      (conv4): Sequential(\n    |        (0): Conv2d(160, 32, kernel_size=(3, 3), stride=(1, 1), padding=(1, 1))\n    |        (1): LeakyReLU(negative_slope=0.2, inplace=True)\n    |      )\n    |      (conv5): Sequential(\n    |        (0): Conv2d(192, 64, kernel_size=(3, 3), stride=(1, 1), padding=(1, 1))\n    |      )\n    |    )\n    |    (RDB3): ResidualDenseBlock_5C(\n    |      (conv1): Sequential(\n    |        (0): Conv2d(64, 32, kernel_size=(3, 3), stride=(1, 1), padding=(1, 1))\n    |        (1): LeakyReLU(negative_slope=0.2, inplace=True)\n    |      )\n    |      (conv2): Sequential(\n    |        (0): Conv2d(96, 32, kernel_size=(3, 3), stride=(1, 1), padding=(1, 1))\n    |        (1): LeakyReLU(negative_slope=0.2, inplace=True)\n    |      )\n    |      (conv3): Sequential(\n    |        (0): Conv2d(128, 32, kernel_size=(3, 3), stride=(1, 1), padding=(1, 1))\n    |        (1): LeakyReLU(negative_slope=0.2, inplace=True)\n    |      )\n    |      (conv4): Sequential(\n    |        (0): Conv2d(160, 32, kernel_size=(3, 3), stride=(1, 1), padding=(1, 1))\n    |        (1): LeakyReLU(negative_slope=0.2, inplace=True)\n    |      )\n    |      (conv5): Sequential(\n    |        (0): Conv2d(192, 64, kernel_size=(3, 3), stride=(1, 1), padding=(1, 1))\n    |      )\n    |    )\n    |  )\n    |  (5): RRDB(\n    |    (RDB1): ResidualDenseBlock_5C(\n    |      (conv1): Sequential(\n    |        (0): Conv2d(64, 32, kernel_size=(3, 3), stride=(1, 1), padding=(1, 1))\n    |        (1): LeakyReLU(negative_slope=0.2, inplace=True)\n    |      )\n    |      (conv2): Sequential(\n    |        (0): Conv2d(96, 32, kernel_size=(3, 3), stride=(1, 1), padding=(1, 1))\n    |        (1): LeakyReLU(negative_slope=0.2, inplace=True)\n    |      )\n    |      (conv3): Sequential(\n    |        (0): Conv2d(128, 32, kernel_size=(3, 3), stride=(1, 1), padding=(1, 1))\n    |        (1): LeakyReLU(negative_slope=0.2, inplace=True)\n    |      )\n    |      (conv4): Sequential(\n    |        (0): Conv2d(160, 32, kernel_size=(3, 3), stride=(1, 1), padding=(1, 1))\n    |        (1): LeakyReLU(negative_slope=0.2, inplace=True)\n    |      )\n    |      (conv5): Sequential(\n    |        (0): Conv2d(192, 64, kernel_size=(3, 3), stride=(1, 1), padding=(1, 1))\n    |      )\n    |    )\n    |    (RDB2): ResidualDenseBlock_5C(\n    |      (conv1): Sequential(\n    |        (0): Conv2d(64, 32, kernel_size=(3, 3), stride=(1, 1), padding=(1, 1))\n    |        (1): LeakyReLU(negative_slope=0.2, inplace=True)\n    |      )\n    |      (conv2): Sequential(\n    |        (0): Conv2d(96, 32, kernel_size=(3, 3), stride=(1, 1), padding=(1, 1))\n    |        (1): LeakyReLU(negative_slope=0.2, inplace=True)\n    |      )\n    |      (conv3): Sequential(\n    |        (0): Conv2d(128, 32, kernel_size=(3, 3), stride=(1, 1), padding=(1, 1))\n    |        (1): LeakyReLU(negative_slope=0.2, inplace=True)\n    |      )\n    |      (conv4): Sequential(\n    |        (0): Conv2d(160, 32, kernel_size=(3, 3), stride=(1, 1), padding=(1, 1))\n    |        (1): LeakyReLU(negative_slope=0.2, inplace=True)\n    |      )\n    |      (conv5): Sequential(\n    |        (0): Conv2d(192, 64, kernel_size=(3, 3), stride=(1, 1), padding=(1, 1))\n    |      )\n    |    )\n    |    (RDB3): ResidualDenseBlock_5C(\n    |      (conv1): Sequential(\n    |        (0): Conv2d(64, 32, kernel_size=(3, 3), stride=(1, 1), padding=(1, 1))\n    |        (1): LeakyReLU(negative_slope=0.2, inplace=True)\n    |      )\n    |      (conv2): Sequential(\n    |        (0): Conv2d(96, 32, kernel_size=(3, 3), stride=(1, 1), padding=(1, 1))\n    |        (1): LeakyReLU(negative_slope=0.2, inplace=True)\n    |      )\n    |      (conv3): Sequential(\n    |        (0): Conv2d(128, 32, kernel_size=(3, 3), stride=(1, 1), padding=(1, 1))\n    |        (1): LeakyReLU(negative_slope=0.2, inplace=True)\n    |      )\n    |      (conv4): Sequential(\n    |        (0): Conv2d(160, 32, kernel_size=(3, 3), stride=(1, 1), padding=(1, 1))\n    |        (1): LeakyReLU(negative_slope=0.2, inplace=True)\n    |      )\n    |      (conv5): Sequential(\n    |        (0): Conv2d(192, 64, kernel_size=(3, 3), stride=(1, 1), padding=(1, 1))\n    |      )\n    |    )\n    |  )\n    |  (6): RRDB(\n    |    (RDB1): ResidualDenseBlock_5C(\n    |      (conv1): Sequential(\n    |        (0): Conv2d(64, 32, kernel_size=(3, 3), stride=(1, 1), padding=(1, 1))\n    |        (1): LeakyReLU(negative_slope=0.2, inplace=True)\n    |      )\n    |      (conv2): Sequential(\n    |        (0): Conv2d(96, 32, kernel_size=(3, 3), stride=(1, 1), padding=(1, 1))\n    |        (1): LeakyReLU(negative_slope=0.2, inplace=True)\n    |      )\n    |      (conv3): Sequential(\n    |        (0): Conv2d(128, 32, kernel_size=(3, 3), stride=(1, 1), padding=(1, 1))\n    |        (1): LeakyReLU(negative_slope=0.2, inplace=True)\n    |      )\n    |      (conv4): Sequential(\n    |        (0): Conv2d(160, 32, kernel_size=(3, 3), stride=(1, 1), padding=(1, 1))\n    |        (1): LeakyReLU(negative_slope=0.2, inplace=True)\n    |      )\n    |      (conv5): Sequential(\n    |        (0): Conv2d(192, 64, kernel_size=(3, 3), stride=(1, 1), padding=(1, 1))\n    |      )\n    |    )\n    |    (RDB2): ResidualDenseBlock_5C(\n    |      (conv1): Sequential(\n    |        (0): Conv2d(64, 32, kernel_size=(3, 3), stride=(1, 1), padding=(1, 1))\n    |        (1): LeakyReLU(negative_slope=0.2, inplace=True)\n    |      )\n    |      (conv2): Sequential(\n    |        (0): Conv2d(96, 32, kernel_size=(3, 3), stride=(1, 1), padding=(1, 1))\n    |        (1): LeakyReLU(negative_slope=0.2, inplace=True)\n    |      )\n    |      (conv3): Sequential(\n    |        (0): Conv2d(128, 32, kernel_size=(3, 3), stride=(1, 1), padding=(1, 1))\n    |        (1): LeakyReLU(negative_slope=0.2, inplace=True)\n    |      )\n    |      (conv4): Sequential(\n    |        (0): Conv2d(160, 32, kernel_size=(3, 3), stride=(1, 1), padding=(1, 1))\n    |        (1): LeakyReLU(negative_slope=0.2, inplace=True)\n    |      )\n    |      (conv5): Sequential(\n    |        (0): Conv2d(192, 64, kernel_size=(3, 3), stride=(1, 1), padding=(1, 1))\n    |      )\n    |    )\n    |    (RDB3): ResidualDenseBlock_5C(\n    |      (conv1): Sequential(\n    |        (0): Conv2d(64, 32, kernel_size=(3, 3), stride=(1, 1), padding=(1, 1))\n    |        (1): LeakyReLU(negative_slope=0.2, inplace=True)\n    |      )\n    |      (conv2): Sequential(\n    |        (0): Conv2d(96, 32, kernel_size=(3, 3), stride=(1, 1), padding=(1, 1))\n    |        (1): LeakyReLU(negative_slope=0.2, inplace=True)\n    |      )\n    |      (conv3): Sequential(\n    |        (0): Conv2d(128, 32, kernel_size=(3, 3), stride=(1, 1), padding=(1, 1))\n    |        (1): LeakyReLU(negative_slope=0.2, inplace=True)\n    |      )\n    |      (conv4): Sequential(\n    |        (0): Conv2d(160, 32, kernel_size=(3, 3), stride=(1, 1), padding=(1, 1))\n    |        (1): LeakyReLU(negative_slope=0.2, inplace=True)\n    |      )\n    |      (conv5): Sequential(\n    |        (0): Conv2d(192, 64, kernel_size=(3, 3), stride=(1, 1), padding=(1, 1))\n    |      )\n    |    )\n    |  )\n    |  (7): RRDB(\n    |    (RDB1): ResidualDenseBlock_5C(\n    |      (conv1): Sequential(\n    |        (0): Conv2d(64, 32, kernel_size=(3, 3), stride=(1, 1), padding=(1, 1))\n    |        (1): LeakyReLU(negative_slope=0.2, inplace=True)\n    |      )\n    |      (conv2): Sequential(\n    |        (0): Conv2d(96, 32, kernel_size=(3, 3), stride=(1, 1), padding=(1, 1))\n    |        (1): LeakyReLU(negative_slope=0.2, inplace=True)\n    |      )\n    |      (conv3): Sequential(\n    |        (0): Conv2d(128, 32, kernel_size=(3, 3), stride=(1, 1), padding=(1, 1))\n    |        (1): LeakyReLU(negative_slope=0.2, inplace=True)\n    |      )\n    |      (conv4): Sequential(\n    |        (0): Conv2d(160, 32, kernel_size=(3, 3), stride=(1, 1), padding=(1, 1))\n    |        (1): LeakyReLU(negative_slope=0.2, inplace=True)\n    |      )\n    |      (conv5): Sequential(\n    |        (0): Conv2d(192, 64, kernel_size=(3, 3), stride=(1, 1), padding=(1, 1))\n    |      )\n    |    )\n    |    (RDB2): ResidualDenseBlock_5C(\n    |      (conv1): Sequential(\n    |        (0): Conv2d(64, 32, kernel_size=(3, 3), stride=(1, 1), padding=(1, 1))\n    |        (1): LeakyReLU(negative_slope=0.2, inplace=True)\n    |      )\n    |      (conv2): Sequential(\n    |        (0): Conv2d(96, 32, kernel_size=(3, 3), stride=(1, 1), padding=(1, 1))\n    |        (1): LeakyReLU(negative_slope=0.2, inplace=True)\n    |      )\n    |      (conv3): Sequential(\n    |        (0): Conv2d(128, 32, kernel_size=(3, 3), stride=(1, 1), padding=(1, 1))\n    |        (1): LeakyReLU(negative_slope=0.2, inplace=True)\n    |      )\n    |      (conv4): Sequential(\n    |        (0): Conv2d(160, 32, kernel_size=(3, 3), stride=(1, 1), padding=(1, 1))\n    |        (1): LeakyReLU(negative_slope=0.2, inplace=True)\n    |      )\n    |      (conv5): Sequential(\n    |        (0): Conv2d(192, 64, kernel_size=(3, 3), stride=(1, 1), padding=(1, 1))\n    |      )\n    |    )\n    |    (RDB3): ResidualDenseBlock_5C(\n    |      (conv1): Sequential(\n    |        (0): Conv2d(64, 32, kernel_size=(3, 3), stride=(1, 1), padding=(1, 1))\n    |        (1): LeakyReLU(negative_slope=0.2, inplace=True)\n    |      )\n    |      (conv2): Sequential(\n    |        (0): Conv2d(96, 32, kernel_size=(3, 3), stride=(1, 1), padding=(1, 1))\n    |        (1): LeakyReLU(negative_slope=0.2, inplace=True)\n    |      )\n    |      (conv3): Sequential(\n    |        (0): Conv2d(128, 32, kernel_size=(3, 3), stride=(1, 1), padding=(1, 1))\n    |        (1): LeakyReLU(negative_slope=0.2, inplace=True)\n    |      )\n    |      (conv4): Sequential(\n    |        (0): Conv2d(160, 32, kernel_size=(3, 3), stride=(1, 1), padding=(1, 1))\n    |        (1): LeakyReLU(negative_slope=0.2, inplace=True)\n    |      )\n    |      (conv5): Sequential(\n    |        (0): Conv2d(192, 64, kernel_size=(3, 3), stride=(1, 1), padding=(1, 1))\n    |      )\n    |    )\n    |  )\n    |  (8): RRDB(\n    |    (RDB1): ResidualDenseBlock_5C(\n    |      (conv1): Sequential(\n    |        (0): Conv2d(64, 32, kernel_size=(3, 3), stride=(1, 1), padding=(1, 1))\n    |        (1): LeakyReLU(negative_slope=0.2, inplace=True)\n    |      )\n    |      (conv2): Sequential(\n    |        (0): Conv2d(96, 32, kernel_size=(3, 3), stride=(1, 1), padding=(1, 1))\n    |        (1): LeakyReLU(negative_slope=0.2, inplace=True)\n    |      )\n    |      (conv3): Sequential(\n    |        (0): Conv2d(128, 32, kernel_size=(3, 3), stride=(1, 1), padding=(1, 1))\n    |        (1): LeakyReLU(negative_slope=0.2, inplace=True)\n    |      )\n    |      (conv4): Sequential(\n    |        (0): Conv2d(160, 32, kernel_size=(3, 3), stride=(1, 1), padding=(1, 1))\n    |        (1): LeakyReLU(negative_slope=0.2, inplace=True)\n    |      )\n    |      (conv5): Sequential(\n    |        (0): Conv2d(192, 64, kernel_size=(3, 3), stride=(1, 1), padding=(1, 1))\n    |      )\n    |    )\n    |    (RDB2): ResidualDenseBlock_5C(\n    |      (conv1): Sequential(\n    |        (0): Conv2d(64, 32, kernel_size=(3, 3), stride=(1, 1), padding=(1, 1))\n    |        (1): LeakyReLU(negative_slope=0.2, inplace=True)\n    |      )\n    |      (conv2): Sequential(\n    |        (0): Conv2d(96, 32, kernel_size=(3, 3), stride=(1, 1), padding=(1, 1))\n    |        (1): LeakyReLU(negative_slope=0.2, inplace=True)\n    |      )\n    |      (conv3): Sequential(\n    |        (0): Conv2d(128, 32, kernel_size=(3, 3), stride=(1, 1), padding=(1, 1))\n    |        (1): LeakyReLU(negative_slope=0.2, inplace=True)\n    |      )\n    |      (conv4): Sequential(\n    |        (0): Conv2d(160, 32, kernel_size=(3, 3), stride=(1, 1), padding=(1, 1))\n    |        (1): LeakyReLU(negative_slope=0.2, inplace=True)\n    |      )\n    |      (conv5): Sequential(\n    |        (0): Conv2d(192, 64, kernel_size=(3, 3), stride=(1, 1), padding=(1, 1))\n    |      )\n    |    )\n    |    (RDB3): ResidualDenseBlock_5C(\n    |      (conv1): Sequential(\n    |        (0): Conv2d(64, 32, kernel_size=(3, 3), stride=(1, 1), padding=(1, 1))\n    |        (1): LeakyReLU(negative_slope=0.2, inplace=True)\n    |      )\n    |      (conv2): Sequential(\n    |        (0): Conv2d(96, 32, kernel_size=(3, 3), stride=(1, 1), padding=(1, 1))\n    |        (1): LeakyReLU(negative_slope=0.2, inplace=True)\n    |      )\n    |      (conv3): Sequential(\n    |        (0): Conv2d(128, 32, kernel_size=(3, 3), stride=(1, 1), padding=(1, 1))\n    |        (1): LeakyReLU(negative_slope=0.2, inplace=True)\n    |      )\n    |      (conv4): Sequential(\n    |        (0): Conv2d(160, 32, kernel_size=(3, 3), stride=(1, 1), padding=(1, 1))\n    |        (1): LeakyReLU(negative_slope=0.2, inplace=True)\n    |      )\n    |      (conv5): Sequential(\n    |        (0): Conv2d(192, 64, kernel_size=(3, 3), stride=(1, 1), padding=(1, 1))\n    |      )\n    |    )\n    |  )\n    |  (9): RRDB(\n    |    (RDB1): ResidualDenseBlock_5C(\n    |      (conv1): Sequential(\n    |        (0): Conv2d(64, 32, kernel_size=(3, 3), stride=(1, 1), padding=(1, 1))\n    |        (1): LeakyReLU(negative_slope=0.2, inplace=True)\n    |      )\n    |      (conv2): Sequential(\n    |        (0): Conv2d(96, 32, kernel_size=(3, 3), stride=(1, 1), padding=(1, 1))\n    |        (1): LeakyReLU(negative_slope=0.2, inplace=True)\n    |      )\n    |      (conv3): Sequential(\n    |        (0): Conv2d(128, 32, kernel_size=(3, 3), stride=(1, 1), padding=(1, 1))\n    |        (1): LeakyReLU(negative_slope=0.2, inplace=True)\n    |      )\n    |      (conv4): Sequential(\n    |        (0): Conv2d(160, 32, kernel_size=(3, 3), stride=(1, 1), padding=(1, 1))\n    |        (1): LeakyReLU(negative_slope=0.2, inplace=True)\n    |      )\n    |      (conv5): Sequential(\n    |        (0): Conv2d(192, 64, kernel_size=(3, 3), stride=(1, 1), padding=(1, 1))\n    |      )\n    |    )\n    |    (RDB2): ResidualDenseBlock_5C(\n    |      (conv1): Sequential(\n    |        (0): Conv2d(64, 32, kernel_size=(3, 3), stride=(1, 1), padding=(1, 1))\n    |        (1): LeakyReLU(negative_slope=0.2, inplace=True)\n    |      )\n    |      (conv2): Sequential(\n    |        (0): Conv2d(96, 32, kernel_size=(3, 3), stride=(1, 1), padding=(1, 1))\n    |        (1): LeakyReLU(negative_slope=0.2, inplace=True)\n    |      )\n    |      (conv3): Sequential(\n    |        (0): Conv2d(128, 32, kernel_size=(3, 3), stride=(1, 1), padding=(1, 1))\n    |        (1): LeakyReLU(negative_slope=0.2, inplace=True)\n    |      )\n    |      (conv4): Sequential(\n    |        (0): Conv2d(160, 32, kernel_size=(3, 3), stride=(1, 1), padding=(1, 1))\n    |        (1): LeakyReLU(negative_slope=0.2, inplace=True)\n    |      )\n    |      (conv5): Sequential(\n    |        (0): Conv2d(192, 64, kernel_size=(3, 3), stride=(1, 1), padding=(1, 1))\n    |      )\n    |    )\n    |    (RDB3): ResidualDenseBlock_5C(\n    |      (conv1): Sequential(\n    |        (0): Conv2d(64, 32, kernel_size=(3, 3), stride=(1, 1), padding=(1, 1))\n    |        (1): LeakyReLU(negative_slope=0.2, inplace=True)\n    |      )\n    |      (conv2): Sequential(\n    |        (0): Conv2d(96, 32, kernel_size=(3, 3), stride=(1, 1), padding=(1, 1))\n    |        (1): LeakyReLU(negative_slope=0.2, inplace=True)\n    |      )\n    |      (conv3): Sequential(\n    |        (0): Conv2d(128, 32, kernel_size=(3, 3), stride=(1, 1), padding=(1, 1))\n    |        (1): LeakyReLU(negative_slope=0.2, inplace=True)\n    |      )\n    |      (conv4): Sequential(\n    |        (0): Conv2d(160, 32, kernel_size=(3, 3), stride=(1, 1), padding=(1, 1))\n    |        (1): LeakyReLU(negative_slope=0.2, inplace=True)\n    |      )\n    |      (conv5): Sequential(\n    |        (0): Conv2d(192, 64, kernel_size=(3, 3), stride=(1, 1), padding=(1, 1))\n    |      )\n    |    )\n    |  )\n    |  (10): RRDB(\n    |    (RDB1): ResidualDenseBlock_5C(\n    |      (conv1): Sequential(\n    |        (0): Conv2d(64, 32, kernel_size=(3, 3), stride=(1, 1), padding=(1, 1))\n    |        (1): LeakyReLU(negative_slope=0.2, inplace=True)\n    |      )\n    |      (conv2): Sequential(\n    |        (0): Conv2d(96, 32, kernel_size=(3, 3), stride=(1, 1), padding=(1, 1))\n    |        (1): LeakyReLU(negative_slope=0.2, inplace=True)\n    |      )\n    |      (conv3): Sequential(\n    |        (0): Conv2d(128, 32, kernel_size=(3, 3), stride=(1, 1), padding=(1, 1))\n    |        (1): LeakyReLU(negative_slope=0.2, inplace=True)\n    |      )\n    |      (conv4): Sequential(\n    |        (0): Conv2d(160, 32, kernel_size=(3, 3), stride=(1, 1), padding=(1, 1))\n    |        (1): LeakyReLU(negative_slope=0.2, inplace=True)\n    |      )\n    |      (conv5): Sequential(\n    |        (0): Conv2d(192, 64, kernel_size=(3, 3), stride=(1, 1), padding=(1, 1))\n    |      )\n    |    )\n    |    (RDB2): ResidualDenseBlock_5C(\n    |      (conv1): Sequential(\n    |        (0): Conv2d(64, 32, kernel_size=(3, 3), stride=(1, 1), padding=(1, 1))\n    |        (1): LeakyReLU(negative_slope=0.2, inplace=True)\n    |      )\n    |      (conv2): Sequential(\n    |        (0): Conv2d(96, 32, kernel_size=(3, 3), stride=(1, 1), padding=(1, 1))\n    |        (1): LeakyReLU(negative_slope=0.2, inplace=True)\n    |      )\n    |      (conv3): Sequential(\n    |        (0): Conv2d(128, 32, kernel_size=(3, 3), stride=(1, 1), padding=(1, 1))\n    |        (1): LeakyReLU(negative_slope=0.2, inplace=True)\n    |      )\n    |      (conv4): Sequential(\n    |        (0): Conv2d(160, 32, kernel_size=(3, 3), stride=(1, 1), padding=(1, 1))\n    |        (1): LeakyReLU(negative_slope=0.2, inplace=True)\n    |      )\n    |      (conv5): Sequential(\n    |        (0): Conv2d(192, 64, kernel_size=(3, 3), stride=(1, 1), padding=(1, 1))\n    |      )\n    |    )\n    |    (RDB3): ResidualDenseBlock_5C(\n    |      (conv1): Sequential(\n    |        (0): Conv2d(64, 32, kernel_size=(3, 3), stride=(1, 1), padding=(1, 1))\n    |        (1): LeakyReLU(negative_slope=0.2, inplace=True)\n    |      )\n    |      (conv2): Sequential(\n    |        (0): Conv2d(96, 32, kernel_size=(3, 3), stride=(1, 1), padding=(1, 1))\n    |        (1): LeakyReLU(negative_slope=0.2, inplace=True)\n    |      )\n    |      (conv3): Sequential(\n    |        (0): Conv2d(128, 32, kernel_size=(3, 3), stride=(1, 1), padding=(1, 1))\n    |        (1): LeakyReLU(negative_slope=0.2, inplace=True)\n    |      )\n    |      (conv4): Sequential(\n    |        (0): Conv2d(160, 32, kernel_size=(3, 3), stride=(1, 1), padding=(1, 1))\n    |        (1): LeakyReLU(negative_slope=0.2, inplace=True)\n    |      )\n    |      (conv5): Sequential(\n    |        (0): Conv2d(192, 64, kernel_size=(3, 3), stride=(1, 1), padding=(1, 1))\n    |      )\n    |    )\n    |  )\n    |  (11): RRDB(\n    |    (RDB1): ResidualDenseBlock_5C(\n    |      (conv1): Sequential(\n    |        (0): Conv2d(64, 32, kernel_size=(3, 3), stride=(1, 1), padding=(1, 1))\n    |        (1): LeakyReLU(negative_slope=0.2, inplace=True)\n    |      )\n    |      (conv2): Sequential(\n    |        (0): Conv2d(96, 32, kernel_size=(3, 3), stride=(1, 1), padding=(1, 1))\n    |        (1): LeakyReLU(negative_slope=0.2, inplace=True)\n    |      )\n    |      (conv3): Sequential(\n    |        (0): Conv2d(128, 32, kernel_size=(3, 3), stride=(1, 1), padding=(1, 1))\n    |        (1): LeakyReLU(negative_slope=0.2, inplace=True)\n    |      )\n    |      (conv4): Sequential(\n    |        (0): Conv2d(160, 32, kernel_size=(3, 3), stride=(1, 1), padding=(1, 1))\n    |        (1): LeakyReLU(negative_slope=0.2, inplace=True)\n    |      )\n    |      (conv5): Sequential(\n    |        (0): Conv2d(192, 64, kernel_size=(3, 3), stride=(1, 1), padding=(1, 1))\n    |      )\n    |    )\n    |    (RDB2): ResidualDenseBlock_5C(\n    |      (conv1): Sequential(\n    |        (0): Conv2d(64, 32, kernel_size=(3, 3), stride=(1, 1), padding=(1, 1))\n    |        (1): LeakyReLU(negative_slope=0.2, inplace=True)\n    |      )\n    |      (conv2): Sequential(\n    |        (0): Conv2d(96, 32, kernel_size=(3, 3), stride=(1, 1), padding=(1, 1))\n    |        (1): LeakyReLU(negative_slope=0.2, inplace=True)\n    |      )\n    |      (conv3): Sequential(\n    |        (0): Conv2d(128, 32, kernel_size=(3, 3), stride=(1, 1), padding=(1, 1))\n    |        (1): LeakyReLU(negative_slope=0.2, inplace=True)\n    |      )\n    |      (conv4): Sequential(\n    |        (0): Conv2d(160, 32, kernel_size=(3, 3), stride=(1, 1), padding=(1, 1))\n    |        (1): LeakyReLU(negative_slope=0.2, inplace=True)\n    |      )\n    |      (conv5): Sequential(\n    |        (0): Conv2d(192, 64, kernel_size=(3, 3), stride=(1, 1), padding=(1, 1))\n    |      )\n    |    )\n    |    (RDB3): ResidualDenseBlock_5C(\n    |      (conv1): Sequential(\n    |        (0): Conv2d(64, 32, kernel_size=(3, 3), stride=(1, 1), padding=(1, 1))\n    |        (1): LeakyReLU(negative_slope=0.2, inplace=True)\n    |      )\n    |      (conv2): Sequential(\n    |        (0): Conv2d(96, 32, kernel_size=(3, 3), stride=(1, 1), padding=(1, 1))\n    |        (1): LeakyReLU(negative_slope=0.2, inplace=True)\n    |      )\n    |      (conv3): Sequential(\n    |        (0): Conv2d(128, 32, kernel_size=(3, 3), stride=(1, 1), padding=(1, 1))\n    |        (1): LeakyReLU(negative_slope=0.2, inplace=True)\n    |      )\n    |      (conv4): Sequential(\n    |        (0): Conv2d(160, 32, kernel_size=(3, 3), stride=(1, 1), padding=(1, 1))\n    |        (1): LeakyReLU(negative_slope=0.2, inplace=True)\n    |      )\n    |      (conv5): Sequential(\n    |        (0): Conv2d(192, 64, kernel_size=(3, 3), stride=(1, 1), padding=(1, 1))\n    |      )\n    |    )\n    |  )\n    |  (12): RRDB(\n    |    (RDB1): ResidualDenseBlock_5C(\n    |      (conv1): Sequential(\n    |        (0): Conv2d(64, 32, kernel_size=(3, 3), stride=(1, 1), padding=(1, 1))\n    |        (1): LeakyReLU(negative_slope=0.2, inplace=True)\n    |      )\n    |      (conv2): Sequential(\n    |        (0): Conv2d(96, 32, kernel_size=(3, 3), stride=(1, 1), padding=(1, 1))\n    |        (1): LeakyReLU(negative_slope=0.2, inplace=True)\n    |      )\n    |      (conv3): Sequential(\n    |        (0): Conv2d(128, 32, kernel_size=(3, 3), stride=(1, 1), padding=(1, 1))\n    |        (1): LeakyReLU(negative_slope=0.2, inplace=True)\n    |      )\n    |      (conv4): Sequential(\n    |        (0): Conv2d(160, 32, kernel_size=(3, 3), stride=(1, 1), padding=(1, 1))\n    |        (1): LeakyReLU(negative_slope=0.2, inplace=True)\n    |      )\n    |      (conv5): Sequential(\n    |        (0): Conv2d(192, 64, kernel_size=(3, 3), stride=(1, 1), padding=(1, 1))\n    |      )\n    |    )\n    |    (RDB2): ResidualDenseBlock_5C(\n    |      (conv1): Sequential(\n    |        (0): Conv2d(64, 32, kernel_size=(3, 3), stride=(1, 1), padding=(1, 1))\n    |        (1): LeakyReLU(negative_slope=0.2, inplace=True)\n    |      )\n    |      (conv2): Sequential(\n    |        (0): Conv2d(96, 32, kernel_size=(3, 3), stride=(1, 1), padding=(1, 1))\n    |        (1): LeakyReLU(negative_slope=0.2, inplace=True)\n    |      )\n    |      (conv3): Sequential(\n    |        (0): Conv2d(128, 32, kernel_size=(3, 3), stride=(1, 1), padding=(1, 1))\n    |        (1): LeakyReLU(negative_slope=0.2, inplace=True)\n    |      )\n    |      (conv4): Sequential(\n    |        (0): Conv2d(160, 32, kernel_size=(3, 3), stride=(1, 1), padding=(1, 1))\n    |        (1): LeakyReLU(negative_slope=0.2, inplace=True)\n    |      )\n    |      (conv5): Sequential(\n    |        (0): Conv2d(192, 64, kernel_size=(3, 3), stride=(1, 1), padding=(1, 1))\n    |      )\n    |    )\n    |    (RDB3): ResidualDenseBlock_5C(\n    |      (conv1): Sequential(\n    |        (0): Conv2d(64, 32, kernel_size=(3, 3), stride=(1, 1), padding=(1, 1))\n    |        (1): LeakyReLU(negative_slope=0.2, inplace=True)\n    |      )\n    |      (conv2): Sequential(\n    |        (0): Conv2d(96, 32, kernel_size=(3, 3), stride=(1, 1), padding=(1, 1))\n    |        (1): LeakyReLU(negative_slope=0.2, inplace=True)\n    |      )\n    |      (conv3): Sequential(\n    |        (0): Conv2d(128, 32, kernel_size=(3, 3), stride=(1, 1), padding=(1, 1))\n    |        (1): LeakyReLU(negative_slope=0.2, inplace=True)\n    |      )\n    |      (conv4): Sequential(\n    |        (0): Conv2d(160, 32, kernel_size=(3, 3), stride=(1, 1), padding=(1, 1))\n    |        (1): LeakyReLU(negative_slope=0.2, inplace=True)\n    |      )\n    |      (conv5): Sequential(\n    |        (0): Conv2d(192, 64, kernel_size=(3, 3), stride=(1, 1), padding=(1, 1))\n    |      )\n    |    )\n    |  )\n    |  (13): RRDB(\n    |    (RDB1): ResidualDenseBlock_5C(\n    |      (conv1): Sequential(\n    |        (0): Conv2d(64, 32, kernel_size=(3, 3), stride=(1, 1), padding=(1, 1))\n    |        (1): LeakyReLU(negative_slope=0.2, inplace=True)\n    |      )\n    |      (conv2): Sequential(\n    |        (0): Conv2d(96, 32, kernel_size=(3, 3), stride=(1, 1), padding=(1, 1))\n    |        (1): LeakyReLU(negative_slope=0.2, inplace=True)\n    |      )\n    |      (conv3): Sequential(\n    |        (0): Conv2d(128, 32, kernel_size=(3, 3), stride=(1, 1), padding=(1, 1))\n    |        (1): LeakyReLU(negative_slope=0.2, inplace=True)\n    |      )\n    |      (conv4): Sequential(\n    |        (0): Conv2d(160, 32, kernel_size=(3, 3), stride=(1, 1), padding=(1, 1))\n    |        (1): LeakyReLU(negative_slope=0.2, inplace=True)\n    |      )\n    |      (conv5): Sequential(\n    |        (0): Conv2d(192, 64, kernel_size=(3, 3), stride=(1, 1), padding=(1, 1))\n    |      )\n    |    )\n    |    (RDB2): ResidualDenseBlock_5C(\n    |      (conv1): Sequential(\n    |        (0): Conv2d(64, 32, kernel_size=(3, 3), stride=(1, 1), padding=(1, 1))\n    |        (1): LeakyReLU(negative_slope=0.2, inplace=True)\n    |      )\n    |      (conv2): Sequential(\n    |        (0): Conv2d(96, 32, kernel_size=(3, 3), stride=(1, 1), padding=(1, 1))\n    |        (1): LeakyReLU(negative_slope=0.2, inplace=True)\n    |      )\n    |      (conv3): Sequential(\n    |        (0): Conv2d(128, 32, kernel_size=(3, 3), stride=(1, 1), padding=(1, 1))\n    |        (1): LeakyReLU(negative_slope=0.2, inplace=True)\n    |      )\n    |      (conv4): Sequential(\n    |        (0): Conv2d(160, 32, kernel_size=(3, 3), stride=(1, 1), padding=(1, 1))\n    |        (1): LeakyReLU(negative_slope=0.2, inplace=True)\n    |      )\n    |      (conv5): Sequential(\n    |        (0): Conv2d(192, 64, kernel_size=(3, 3), stride=(1, 1), padding=(1, 1))\n    |      )\n    |    )\n    |    (RDB3): ResidualDenseBlock_5C(\n    |      (conv1): Sequential(\n    |        (0): Conv2d(64, 32, kernel_size=(3, 3), stride=(1, 1), padding=(1, 1))\n    |        (1): LeakyReLU(negative_slope=0.2, inplace=True)\n    |      )\n    |      (conv2): Sequential(\n    |        (0): Conv2d(96, 32, kernel_size=(3, 3), stride=(1, 1), padding=(1, 1))\n    |        (1): LeakyReLU(negative_slope=0.2, inplace=True)\n    |      )\n    |      (conv3): Sequential(\n    |        (0): Conv2d(128, 32, kernel_size=(3, 3), stride=(1, 1), padding=(1, 1))\n    |        (1): LeakyReLU(negative_slope=0.2, inplace=True)\n    |      )\n    |      (conv4): Sequential(\n    |        (0): Conv2d(160, 32, kernel_size=(3, 3), stride=(1, 1), padding=(1, 1))\n    |        (1): LeakyReLU(negative_slope=0.2, inplace=True)\n    |      )\n    |      (conv5): Sequential(\n    |        (0): Conv2d(192, 64, kernel_size=(3, 3), stride=(1, 1), padding=(1, 1))\n    |      )\n    |    )\n    |  )\n    |  (14): RRDB(\n    |    (RDB1): ResidualDenseBlock_5C(\n    |      (conv1): Sequential(\n    |        (0): Conv2d(64, 32, kernel_size=(3, 3), stride=(1, 1), padding=(1, 1))\n    |        (1): LeakyReLU(negative_slope=0.2, inplace=True)\n    |      )\n    |      (conv2): Sequential(\n    |        (0): Conv2d(96, 32, kernel_size=(3, 3), stride=(1, 1), padding=(1, 1))\n    |        (1): LeakyReLU(negative_slope=0.2, inplace=True)\n    |      )\n    |      (conv3): Sequential(\n    |        (0): Conv2d(128, 32, kernel_size=(3, 3), stride=(1, 1), padding=(1, 1))\n    |        (1): LeakyReLU(negative_slope=0.2, inplace=True)\n    |      )\n    |      (conv4): Sequential(\n    |        (0): Conv2d(160, 32, kernel_size=(3, 3), stride=(1, 1), padding=(1, 1))\n    |        (1): LeakyReLU(negative_slope=0.2, inplace=True)\n    |      )\n    |      (conv5): Sequential(\n    |        (0): Conv2d(192, 64, kernel_size=(3, 3), stride=(1, 1), padding=(1, 1))\n    |      )\n    |    )\n    |    (RDB2): ResidualDenseBlock_5C(\n    |      (conv1): Sequential(\n    |        (0): Conv2d(64, 32, kernel_size=(3, 3), stride=(1, 1), padding=(1, 1))\n    |        (1): LeakyReLU(negative_slope=0.2, inplace=True)\n    |      )\n    |      (conv2): Sequential(\n    |        (0): Conv2d(96, 32, kernel_size=(3, 3), stride=(1, 1), padding=(1, 1))\n    |        (1): LeakyReLU(negative_slope=0.2, inplace=True)\n    |      )\n    |      (conv3): Sequential(\n    |        (0): Conv2d(128, 32, kernel_size=(3, 3), stride=(1, 1), padding=(1, 1))\n    |        (1): LeakyReLU(negative_slope=0.2, inplace=True)\n    |      )\n    |      (conv4): Sequential(\n    |        (0): Conv2d(160, 32, kernel_size=(3, 3), stride=(1, 1), padding=(1, 1))\n    |        (1): LeakyReLU(negative_slope=0.2, inplace=True)\n    |      )\n    |      (conv5): Sequential(\n    |        (0): Conv2d(192, 64, kernel_size=(3, 3), stride=(1, 1), padding=(1, 1))\n    |      )\n    |    )\n    |    (RDB3): ResidualDenseBlock_5C(\n    |      (conv1): Sequential(\n    |        (0): Conv2d(64, 32, kernel_size=(3, 3), stride=(1, 1), padding=(1, 1))\n    |        (1): LeakyReLU(negative_slope=0.2, inplace=True)\n    |      )\n    |      (conv2): Sequential(\n    |        (0): Conv2d(96, 32, kernel_size=(3, 3), stride=(1, 1), padding=(1, 1))\n    |        (1): LeakyReLU(negative_slope=0.2, inplace=True)\n    |      )\n    |      (conv3): Sequential(\n    |        (0): Conv2d(128, 32, kernel_size=(3, 3), stride=(1, 1), padding=(1, 1))\n    |        (1): LeakyReLU(negative_slope=0.2, inplace=True)\n    |      )\n    |      (conv4): Sequential(\n    |        (0): Conv2d(160, 32, kernel_size=(3, 3), stride=(1, 1), padding=(1, 1))\n    |        (1): LeakyReLU(negative_slope=0.2, inplace=True)\n    |      )\n    |      (conv5): Sequential(\n    |        (0): Conv2d(192, 64, kernel_size=(3, 3), stride=(1, 1), padding=(1, 1))\n    |      )\n    |    )\n    |  )\n    |  (15): RRDB(\n    |    (RDB1): ResidualDenseBlock_5C(\n    |      (conv1): Sequential(\n    |        (0): Conv2d(64, 32, kernel_size=(3, 3), stride=(1, 1), padding=(1, 1))\n    |        (1): LeakyReLU(negative_slope=0.2, inplace=True)\n    |      )\n    |      (conv2): Sequential(\n    |        (0): Conv2d(96, 32, kernel_size=(3, 3), stride=(1, 1), padding=(1, 1))\n    |        (1): LeakyReLU(negative_slope=0.2, inplace=True)\n    |      )\n    |      (conv3): Sequential(\n    |        (0): Conv2d(128, 32, kernel_size=(3, 3), stride=(1, 1), padding=(1, 1))\n    |        (1): LeakyReLU(negative_slope=0.2, inplace=True)\n    |      )\n    |      (conv4): Sequential(\n    |        (0): Conv2d(160, 32, kernel_size=(3, 3), stride=(1, 1), padding=(1, 1))\n    |        (1): LeakyReLU(negative_slope=0.2, inplace=True)\n    |      )\n    |      (conv5): Sequential(\n    |        (0): Conv2d(192, 64, kernel_size=(3, 3), stride=(1, 1), padding=(1, 1))\n    |      )\n    |    )\n    |    (RDB2): ResidualDenseBlock_5C(\n    |      (conv1): Sequential(\n    |        (0): Conv2d(64, 32, kernel_size=(3, 3), stride=(1, 1), padding=(1, 1))\n    |        (1): LeakyReLU(negative_slope=0.2, inplace=True)\n    |      )\n    |      (conv2): Sequential(\n    |        (0): Conv2d(96, 32, kernel_size=(3, 3), stride=(1, 1), padding=(1, 1))\n    |        (1): LeakyReLU(negative_slope=0.2, inplace=True)\n    |      )\n    |      (conv3): Sequential(\n    |        (0): Conv2d(128, 32, kernel_size=(3, 3), stride=(1, 1), padding=(1, 1))\n    |        (1): LeakyReLU(negative_slope=0.2, inplace=True)\n    |      )\n    |      (conv4): Sequential(\n    |        (0): Conv2d(160, 32, kernel_size=(3, 3), stride=(1, 1), padding=(1, 1))\n    |        (1): LeakyReLU(negative_slope=0.2, inplace=True)\n    |      )\n    |      (conv5): Sequential(\n    |        (0): Conv2d(192, 64, kernel_size=(3, 3), stride=(1, 1), padding=(1, 1))\n    |      )\n    |    )\n    |    (RDB3): ResidualDenseBlock_5C(\n    |      (conv1): Sequential(\n    |        (0): Conv2d(64, 32, kernel_size=(3, 3), stride=(1, 1), padding=(1, 1))\n    |        (1): LeakyReLU(negative_slope=0.2, inplace=True)\n    |      )\n    |      (conv2): Sequential(\n    |        (0): Conv2d(96, 32, kernel_size=(3, 3), stride=(1, 1), padding=(1, 1))\n    |        (1): LeakyReLU(negative_slope=0.2, inplace=True)\n    |      )\n    |      (conv3): Sequential(\n    |        (0): Conv2d(128, 32, kernel_size=(3, 3), stride=(1, 1), padding=(1, 1))\n    |        (1): LeakyReLU(negative_slope=0.2, inplace=True)\n    |      )\n    |      (conv4): Sequential(\n    |        (0): Conv2d(160, 32, kernel_size=(3, 3), stride=(1, 1), padding=(1, 1))\n    |        (1): LeakyReLU(negative_slope=0.2, inplace=True)\n    |      )\n    |      (conv5): Sequential(\n    |        (0): Conv2d(192, 64, kernel_size=(3, 3), stride=(1, 1), padding=(1, 1))\n    |      )\n    |    )\n    |  )\n    |  (16): RRDB(\n    |    (RDB1): ResidualDenseBlock_5C(\n    |      (conv1): Sequential(\n    |        (0): Conv2d(64, 32, kernel_size=(3, 3), stride=(1, 1), padding=(1, 1))\n    |        (1): LeakyReLU(negative_slope=0.2, inplace=True)\n    |      )\n    |      (conv2): Sequential(\n    |        (0): Conv2d(96, 32, kernel_size=(3, 3), stride=(1, 1), padding=(1, 1))\n    |        (1): LeakyReLU(negative_slope=0.2, inplace=True)\n    |      )\n    |      (conv3): Sequential(\n    |        (0): Conv2d(128, 32, kernel_size=(3, 3), stride=(1, 1), padding=(1, 1))\n    |        (1): LeakyReLU(negative_slope=0.2, inplace=True)\n    |      )\n    |      (conv4): Sequential(\n    |        (0): Conv2d(160, 32, kernel_size=(3, 3), stride=(1, 1), padding=(1, 1))\n    |        (1): LeakyReLU(negative_slope=0.2, inplace=True)\n    |      )\n    |      (conv5): Sequential(\n    |        (0): Conv2d(192, 64, kernel_size=(3, 3), stride=(1, 1), padding=(1, 1))\n    |      )\n    |    )\n    |    (RDB2): ResidualDenseBlock_5C(\n    |      (conv1): Sequential(\n    |        (0): Conv2d(64, 32, kernel_size=(3, 3), stride=(1, 1), padding=(1, 1))\n    |        (1): LeakyReLU(negative_slope=0.2, inplace=True)\n    |      )\n    |      (conv2): Sequential(\n    |        (0): Conv2d(96, 32, kernel_size=(3, 3), stride=(1, 1), padding=(1, 1))\n    |        (1): LeakyReLU(negative_slope=0.2, inplace=True)\n    |      )\n    |      (conv3): Sequential(\n    |        (0): Conv2d(128, 32, kernel_size=(3, 3), stride=(1, 1), padding=(1, 1))\n    |        (1): LeakyReLU(negative_slope=0.2, inplace=True)\n    |      )\n    |      (conv4): Sequential(\n    |        (0): Conv2d(160, 32, kernel_size=(3, 3), stride=(1, 1), padding=(1, 1))\n    |        (1): LeakyReLU(negative_slope=0.2, inplace=True)\n    |      )\n    |      (conv5): Sequential(\n    |        (0): Conv2d(192, 64, kernel_size=(3, 3), stride=(1, 1), padding=(1, 1))\n    |      )\n    |    )\n    |    (RDB3): ResidualDenseBlock_5C(\n    |      (conv1): Sequential(\n    |        (0): Conv2d(64, 32, kernel_size=(3, 3), stride=(1, 1), padding=(1, 1))\n    |        (1): LeakyReLU(negative_slope=0.2, inplace=True)\n    |      )\n    |      (conv2): Sequential(\n    |        (0): Conv2d(96, 32, kernel_size=(3, 3), stride=(1, 1), padding=(1, 1))\n    |        (1): LeakyReLU(negative_slope=0.2, inplace=True)\n    |      )\n    |      (conv3): Sequential(\n    |        (0): Conv2d(128, 32, kernel_size=(3, 3), stride=(1, 1), padding=(1, 1))\n    |        (1): LeakyReLU(negative_slope=0.2, inplace=True)\n    |      )\n    |      (conv4): Sequential(\n    |        (0): Conv2d(160, 32, kernel_size=(3, 3), stride=(1, 1), padding=(1, 1))\n    |        (1): LeakyReLU(negative_slope=0.2, inplace=True)\n    |      )\n    |      (conv5): Sequential(\n    |        (0): Conv2d(192, 64, kernel_size=(3, 3), stride=(1, 1), padding=(1, 1))\n    |      )\n    |    )\n    |  )\n    |  (17): RRDB(\n    |    (RDB1): ResidualDenseBlock_5C(\n    |      (conv1): Sequential(\n    |        (0): Conv2d(64, 32, kernel_size=(3, 3), stride=(1, 1), padding=(1, 1))\n    |        (1): LeakyReLU(negative_slope=0.2, inplace=True)\n    |      )\n    |      (conv2): Sequential(\n    |        (0): Conv2d(96, 32, kernel_size=(3, 3), stride=(1, 1), padding=(1, 1))\n    |        (1): LeakyReLU(negative_slope=0.2, inplace=True)\n    |      )\n    |      (conv3): Sequential(\n    |        (0): Conv2d(128, 32, kernel_size=(3, 3), stride=(1, 1), padding=(1, 1))\n    |        (1): LeakyReLU(negative_slope=0.2, inplace=True)\n    |      )\n    |      (conv4): Sequential(\n    |        (0): Conv2d(160, 32, kernel_size=(3, 3), stride=(1, 1), padding=(1, 1))\n    |        (1): LeakyReLU(negative_slope=0.2, inplace=True)\n    |      )\n    |      (conv5): Sequential(\n    |        (0): Conv2d(192, 64, kernel_size=(3, 3), stride=(1, 1), padding=(1, 1))\n    |      )\n    |    )\n    |    (RDB2): ResidualDenseBlock_5C(\n    |      (conv1): Sequential(\n    |        (0): Conv2d(64, 32, kernel_size=(3, 3), stride=(1, 1), padding=(1, 1))\n    |        (1): LeakyReLU(negative_slope=0.2, inplace=True)\n    |      )\n    |      (conv2): Sequential(\n    |        (0): Conv2d(96, 32, kernel_size=(3, 3), stride=(1, 1), padding=(1, 1))\n    |        (1): LeakyReLU(negative_slope=0.2, inplace=True)\n    |      )\n    |      (conv3): Sequential(\n    |        (0): Conv2d(128, 32, kernel_size=(3, 3), stride=(1, 1), padding=(1, 1))\n    |        (1): LeakyReLU(negative_slope=0.2, inplace=True)\n    |      )\n    |      (conv4): Sequential(\n    |        (0): Conv2d(160, 32, kernel_size=(3, 3), stride=(1, 1), padding=(1, 1))\n    |        (1): LeakyReLU(negative_slope=0.2, inplace=True)\n    |      )\n    |      (conv5): Sequential(\n    |        (0): Conv2d(192, 64, kernel_size=(3, 3), stride=(1, 1), padding=(1, 1))\n    |      )\n    |    )\n    |    (RDB3): ResidualDenseBlock_5C(\n    |      (conv1): Sequential(\n    |        (0): Conv2d(64, 32, kernel_size=(3, 3), stride=(1, 1), padding=(1, 1))\n    |        (1): LeakyReLU(negative_slope=0.2, inplace=True)\n    |      )\n    |      (conv2): Sequential(\n    |        (0): Conv2d(96, 32, kernel_size=(3, 3), stride=(1, 1), padding=(1, 1))\n    |        (1): LeakyReLU(negative_slope=0.2, inplace=True)\n    |      )\n    |      (conv3): Sequential(\n    |        (0): Conv2d(128, 32, kernel_size=(3, 3), stride=(1, 1), padding=(1, 1))\n    |        (1): LeakyReLU(negative_slope=0.2, inplace=True)\n    |      )\n    |      (conv4): Sequential(\n    |        (0): Conv2d(160, 32, kernel_size=(3, 3), stride=(1, 1), padding=(1, 1))\n    |        (1): LeakyReLU(negative_slope=0.2, inplace=True)\n    |      )\n    |      (conv5): Sequential(\n    |        (0): Conv2d(192, 64, kernel_size=(3, 3), stride=(1, 1), padding=(1, 1))\n    |      )\n    |    )\n    |  )\n    |  (18): RRDB(\n    |    (RDB1): ResidualDenseBlock_5C(\n    |      (conv1): Sequential(\n    |        (0): Conv2d(64, 32, kernel_size=(3, 3), stride=(1, 1), padding=(1, 1))\n    |        (1): LeakyReLU(negative_slope=0.2, inplace=True)\n    |      )\n    |      (conv2): Sequential(\n    |        (0): Conv2d(96, 32, kernel_size=(3, 3), stride=(1, 1), padding=(1, 1))\n    |        (1): LeakyReLU(negative_slope=0.2, inplace=True)\n    |      )\n    |      (conv3): Sequential(\n    |        (0): Conv2d(128, 32, kernel_size=(3, 3), stride=(1, 1), padding=(1, 1))\n    |        (1): LeakyReLU(negative_slope=0.2, inplace=True)\n    |      )\n    |      (conv4): Sequential(\n    |        (0): Conv2d(160, 32, kernel_size=(3, 3), stride=(1, 1), padding=(1, 1))\n    |        (1): LeakyReLU(negative_slope=0.2, inplace=True)\n    |      )\n    |      (conv5): Sequential(\n    |        (0): Conv2d(192, 64, kernel_size=(3, 3), stride=(1, 1), padding=(1, 1))\n    |      )\n    |    )\n    |    (RDB2): ResidualDenseBlock_5C(\n    |      (conv1): Sequential(\n    |        (0): Conv2d(64, 32, kernel_size=(3, 3), stride=(1, 1), padding=(1, 1))\n    |        (1): LeakyReLU(negative_slope=0.2, inplace=True)\n    |      )\n    |      (conv2): Sequential(\n    |        (0): Conv2d(96, 32, kernel_size=(3, 3), stride=(1, 1), padding=(1, 1))\n    |        (1): LeakyReLU(negative_slope=0.2, inplace=True)\n    |      )\n    |      (conv3): Sequential(\n    |        (0): Conv2d(128, 32, kernel_size=(3, 3), stride=(1, 1), padding=(1, 1))\n    |        (1): LeakyReLU(negative_slope=0.2, inplace=True)\n    |      )\n    |      (conv4): Sequential(\n    |        (0): Conv2d(160, 32, kernel_size=(3, 3), stride=(1, 1), padding=(1, 1))\n    |        (1): LeakyReLU(negative_slope=0.2, inplace=True)\n    |      )\n    |      (conv5): Sequential(\n    |        (0): Conv2d(192, 64, kernel_size=(3, 3), stride=(1, 1), padding=(1, 1))\n    |      )\n    |    )\n    |    (RDB3): ResidualDenseBlock_5C(\n    |      (conv1): Sequential(\n    |        (0): Conv2d(64, 32, kernel_size=(3, 3), stride=(1, 1), padding=(1, 1))\n    |        (1): LeakyReLU(negative_slope=0.2, inplace=True)\n    |      )\n    |      (conv2): Sequential(\n    |        (0): Conv2d(96, 32, kernel_size=(3, 3), stride=(1, 1), padding=(1, 1))\n    |        (1): LeakyReLU(negative_slope=0.2, inplace=True)\n    |      )\n    |      (conv3): Sequential(\n    |        (0): Conv2d(128, 32, kernel_size=(3, 3), stride=(1, 1), padding=(1, 1))\n    |        (1): LeakyReLU(negative_slope=0.2, inplace=True)\n    |      )\n    |      (conv4): Sequential(\n    |        (0): Conv2d(160, 32, kernel_size=(3, 3), stride=(1, 1), padding=(1, 1))\n    |        (1): LeakyReLU(negative_slope=0.2, inplace=True)\n    |      )\n    |      (conv5): Sequential(\n    |        (0): Conv2d(192, 64, kernel_size=(3, 3), stride=(1, 1), padding=(1, 1))\n    |      )\n    |    )\n    |  )\n    |  (19): RRDB(\n    |    (RDB1): ResidualDenseBlock_5C(\n    |      (conv1): Sequential(\n    |        (0): Conv2d(64, 32, kernel_size=(3, 3), stride=(1, 1), padding=(1, 1))\n    |        (1): LeakyReLU(negative_slope=0.2, inplace=True)\n    |      )\n    |      (conv2): Sequential(\n    |        (0): Conv2d(96, 32, kernel_size=(3, 3), stride=(1, 1), padding=(1, 1))\n    |        (1): LeakyReLU(negative_slope=0.2, inplace=True)\n    |      )\n    |      (conv3): Sequential(\n    |        (0): Conv2d(128, 32, kernel_size=(3, 3), stride=(1, 1), padding=(1, 1))\n    |        (1): LeakyReLU(negative_slope=0.2, inplace=True)\n    |      )\n    |      (conv4): Sequential(\n    |        (0): Conv2d(160, 32, kernel_size=(3, 3), stride=(1, 1), padding=(1, 1))\n    |        (1): LeakyReLU(negative_slope=0.2, inplace=True)\n    |      )\n    |      (conv5): Sequential(\n    |        (0): Conv2d(192, 64, kernel_size=(3, 3), stride=(1, 1), padding=(1, 1))\n    |      )\n    |    )\n    |    (RDB2): ResidualDenseBlock_5C(\n    |      (conv1): Sequential(\n    |        (0): Conv2d(64, 32, kernel_size=(3, 3), stride=(1, 1), padding=(1, 1))\n    |        (1): LeakyReLU(negative_slope=0.2, inplace=True)\n    |      )\n    |      (conv2): Sequential(\n    |        (0): Conv2d(96, 32, kernel_size=(3, 3), stride=(1, 1), padding=(1, 1))\n    |        (1): LeakyReLU(negative_slope=0.2, inplace=True)\n    |      )\n    |      (conv3): Sequential(\n    |        (0): Conv2d(128, 32, kernel_size=(3, 3), stride=(1, 1), padding=(1, 1))\n    |        (1): LeakyReLU(negative_slope=0.2, inplace=True)\n    |      )\n    |      (conv4): Sequential(\n    |        (0): Conv2d(160, 32, kernel_size=(3, 3), stride=(1, 1), padding=(1, 1))\n    |        (1): LeakyReLU(negative_slope=0.2, inplace=True)\n    |      )\n    |      (conv5): Sequential(\n    |        (0): Conv2d(192, 64, kernel_size=(3, 3), stride=(1, 1), padding=(1, 1))\n    |      )\n    |    )\n    |    (RDB3): ResidualDenseBlock_5C(\n    |      (conv1): Sequential(\n    |        (0): Conv2d(64, 32, kernel_size=(3, 3), stride=(1, 1), padding=(1, 1))\n    |        (1): LeakyReLU(negative_slope=0.2, inplace=True)\n    |      )\n    |      (conv2): Sequential(\n    |        (0): Conv2d(96, 32, kernel_size=(3, 3), stride=(1, 1), padding=(1, 1))\n    |        (1): LeakyReLU(negative_slope=0.2, inplace=True)\n    |      )\n    |      (conv3): Sequential(\n    |        (0): Conv2d(128, 32, kernel_size=(3, 3), stride=(1, 1), padding=(1, 1))\n    |        (1): LeakyReLU(negative_slope=0.2, inplace=True)\n    |      )\n    |      (conv4): Sequential(\n    |        (0): Conv2d(160, 32, kernel_size=(3, 3), stride=(1, 1), padding=(1, 1))\n    |        (1): LeakyReLU(negative_slope=0.2, inplace=True)\n    |      )\n    |      (conv5): Sequential(\n    |        (0): Conv2d(192, 64, kernel_size=(3, 3), stride=(1, 1), padding=(1, 1))\n    |      )\n    |    )\n    |  )\n    |  (20): RRDB(\n    |    (RDB1): ResidualDenseBlock_5C(\n    |      (conv1): Sequential(\n    |        (0): Conv2d(64, 32, kernel_size=(3, 3), stride=(1, 1), padding=(1, 1))\n    |        (1): LeakyReLU(negative_slope=0.2, inplace=True)\n    |      )\n    |      (conv2): Sequential(\n    |        (0): Conv2d(96, 32, kernel_size=(3, 3), stride=(1, 1), padding=(1, 1))\n    |        (1): LeakyReLU(negative_slope=0.2, inplace=True)\n    |      )\n    |      (conv3): Sequential(\n    |        (0): Conv2d(128, 32, kernel_size=(3, 3), stride=(1, 1), padding=(1, 1))\n    |        (1): LeakyReLU(negative_slope=0.2, inplace=True)\n    |      )\n    |      (conv4): Sequential(\n    |        (0): Conv2d(160, 32, kernel_size=(3, 3), stride=(1, 1), padding=(1, 1))\n    |        (1): LeakyReLU(negative_slope=0.2, inplace=True)\n    |      )\n    |      (conv5): Sequential(\n    |        (0): Conv2d(192, 64, kernel_size=(3, 3), stride=(1, 1), padding=(1, 1))\n    |      )\n    |    )\n    |    (RDB2): ResidualDenseBlock_5C(\n    |      (conv1): Sequential(\n    |        (0): Conv2d(64, 32, kernel_size=(3, 3), stride=(1, 1), padding=(1, 1))\n    |        (1): LeakyReLU(negative_slope=0.2, inplace=True)\n    |      )\n    |      (conv2): Sequential(\n    |        (0): Conv2d(96, 32, kernel_size=(3, 3), stride=(1, 1), padding=(1, 1))\n    |        (1): LeakyReLU(negative_slope=0.2, inplace=True)\n    |      )\n    |      (conv3): Sequential(\n    |        (0): Conv2d(128, 32, kernel_size=(3, 3), stride=(1, 1), padding=(1, 1))\n    |        (1): LeakyReLU(negative_slope=0.2, inplace=True)\n    |      )\n    |      (conv4): Sequential(\n    |        (0): Conv2d(160, 32, kernel_size=(3, 3), stride=(1, 1), padding=(1, 1))\n    |        (1): LeakyReLU(negative_slope=0.2, inplace=True)\n    |      )\n    |      (conv5): Sequential(\n    |        (0): Conv2d(192, 64, kernel_size=(3, 3), stride=(1, 1), padding=(1, 1))\n    |      )\n    |    )\n    |    (RDB3): ResidualDenseBlock_5C(\n    |      (conv1): Sequential(\n    |        (0): Conv2d(64, 32, kernel_size=(3, 3), stride=(1, 1), padding=(1, 1))\n    |        (1): LeakyReLU(negative_slope=0.2, inplace=True)\n    |      )\n    |      (conv2): Sequential(\n    |        (0): Conv2d(96, 32, kernel_size=(3, 3), stride=(1, 1), padding=(1, 1))\n    |        (1): LeakyReLU(negative_slope=0.2, inplace=True)\n    |      )\n    |      (conv3): Sequential(\n    |        (0): Conv2d(128, 32, kernel_size=(3, 3), stride=(1, 1), padding=(1, 1))\n    |        (1): LeakyReLU(negative_slope=0.2, inplace=True)\n    |      )\n    |      (conv4): Sequential(\n    |        (0): Conv2d(160, 32, kernel_size=(3, 3), stride=(1, 1), padding=(1, 1))\n    |        (1): LeakyReLU(negative_slope=0.2, inplace=True)\n    |      )\n    |      (conv5): Sequential(\n    |        (0): Conv2d(192, 64, kernel_size=(3, 3), stride=(1, 1), padding=(1, 1))\n    |      )\n    |    )\n    |  )\n    |  (21): RRDB(\n    |    (RDB1): ResidualDenseBlock_5C(\n    |      (conv1): Sequential(\n    |        (0): Conv2d(64, 32, kernel_size=(3, 3), stride=(1, 1), padding=(1, 1))\n    |        (1): LeakyReLU(negative_slope=0.2, inplace=True)\n    |      )\n    |      (conv2): Sequential(\n    |        (0): Conv2d(96, 32, kernel_size=(3, 3), stride=(1, 1), padding=(1, 1))\n    |        (1): LeakyReLU(negative_slope=0.2, inplace=True)\n    |      )\n    |      (conv3): Sequential(\n    |        (0): Conv2d(128, 32, kernel_size=(3, 3), stride=(1, 1), padding=(1, 1))\n    |        (1): LeakyReLU(negative_slope=0.2, inplace=True)\n    |      )\n    |      (conv4): Sequential(\n    |        (0): Conv2d(160, 32, kernel_size=(3, 3), stride=(1, 1), padding=(1, 1))\n    |        (1): LeakyReLU(negative_slope=0.2, inplace=True)\n    |      )\n    |      (conv5): Sequential(\n    |        (0): Conv2d(192, 64, kernel_size=(3, 3), stride=(1, 1), padding=(1, 1))\n    |      )\n    |    )\n    |    (RDB2): ResidualDenseBlock_5C(\n    |      (conv1): Sequential(\n    |        (0): Conv2d(64, 32, kernel_size=(3, 3), stride=(1, 1), padding=(1, 1))\n    |        (1): LeakyReLU(negative_slope=0.2, inplace=True)\n    |      )\n    |      (conv2): Sequential(\n    |        (0): Conv2d(96, 32, kernel_size=(3, 3), stride=(1, 1), padding=(1, 1))\n    |        (1): LeakyReLU(negative_slope=0.2, inplace=True)\n    |      )\n    |      (conv3): Sequential(\n    |        (0): Conv2d(128, 32, kernel_size=(3, 3), stride=(1, 1), padding=(1, 1))\n    |        (1): LeakyReLU(negative_slope=0.2, inplace=True)\n    |      )\n    |      (conv4): Sequential(\n    |        (0): Conv2d(160, 32, kernel_size=(3, 3), stride=(1, 1), padding=(1, 1))\n    |        (1): LeakyReLU(negative_slope=0.2, inplace=True)\n    |      )\n    |      (conv5): Sequential(\n    |        (0): Conv2d(192, 64, kernel_size=(3, 3), stride=(1, 1), padding=(1, 1))\n    |      )\n    |    )\n    |    (RDB3): ResidualDenseBlock_5C(\n    |      (conv1): Sequential(\n    |        (0): Conv2d(64, 32, kernel_size=(3, 3), stride=(1, 1), padding=(1, 1))\n    |        (1): LeakyReLU(negative_slope=0.2, inplace=True)\n    |      )\n    |      (conv2): Sequential(\n    |        (0): Conv2d(96, 32, kernel_size=(3, 3), stride=(1, 1), padding=(1, 1))\n    |        (1): LeakyReLU(negative_slope=0.2, inplace=True)\n    |      )\n    |      (conv3): Sequential(\n    |        (0): Conv2d(128, 32, kernel_size=(3, 3), stride=(1, 1), padding=(1, 1))\n    |        (1): LeakyReLU(negative_slope=0.2, inplace=True)\n    |      )\n    |      (conv4): Sequential(\n    |        (0): Conv2d(160, 32, kernel_size=(3, 3), stride=(1, 1), padding=(1, 1))\n    |        (1): LeakyReLU(negative_slope=0.2, inplace=True)\n    |      )\n    |      (conv5): Sequential(\n    |        (0): Conv2d(192, 64, kernel_size=(3, 3), stride=(1, 1), padding=(1, 1))\n    |      )\n    |    )\n    |  )\n    |  (22): RRDB(\n    |    (RDB1): ResidualDenseBlock_5C(\n    |      (conv1): Sequential(\n    |        (0): Conv2d(64, 32, kernel_size=(3, 3), stride=(1, 1), padding=(1, 1))\n    |        (1): LeakyReLU(negative_slope=0.2, inplace=True)\n    |      )\n    |      (conv2): Sequential(\n    |        (0): Conv2d(96, 32, kernel_size=(3, 3), stride=(1, 1), padding=(1, 1))\n    |        (1): LeakyReLU(negative_slope=0.2, inplace=True)\n    |      )\n    |      (conv3): Sequential(\n    |        (0): Conv2d(128, 32, kernel_size=(3, 3), stride=(1, 1), padding=(1, 1))\n    |        (1): LeakyReLU(negative_slope=0.2, inplace=True)\n    |      )\n    |      (conv4): Sequential(\n    |        (0): Conv2d(160, 32, kernel_size=(3, 3), stride=(1, 1), padding=(1, 1))\n    |        (1): LeakyReLU(negative_slope=0.2, inplace=True)\n    |      )\n    |      (conv5): Sequential(\n    |        (0): Conv2d(192, 64, kernel_size=(3, 3), stride=(1, 1), padding=(1, 1))\n    |      )\n    |    )\n    |    (RDB2): ResidualDenseBlock_5C(\n    |      (conv1): Sequential(\n    |        (0): Conv2d(64, 32, kernel_size=(3, 3), stride=(1, 1), padding=(1, 1))\n    |        (1): LeakyReLU(negative_slope=0.2, inplace=True)\n    |      )\n    |      (conv2): Sequential(\n    |        (0): Conv2d(96, 32, kernel_size=(3, 3), stride=(1, 1), padding=(1, 1))\n    |        (1): LeakyReLU(negative_slope=0.2, inplace=True)\n    |      )\n    |      (conv3): Sequential(\n    |        (0): Conv2d(128, 32, kernel_size=(3, 3), stride=(1, 1), padding=(1, 1))\n    |        (1): LeakyReLU(negative_slope=0.2, inplace=True)\n    |      )\n    |      (conv4): Sequential(\n    |        (0): Conv2d(160, 32, kernel_size=(3, 3), stride=(1, 1), padding=(1, 1))\n    |        (1): LeakyReLU(negative_slope=0.2, inplace=True)\n    |      )\n    |      (conv5): Sequential(\n    |        (0): Conv2d(192, 64, kernel_size=(3, 3), stride=(1, 1), padding=(1, 1))\n    |      )\n    |    )\n    |    (RDB3): ResidualDenseBlock_5C(\n    |      (conv1): Sequential(\n    |        (0): Conv2d(64, 32, kernel_size=(3, 3), stride=(1, 1), padding=(1, 1))\n    |        (1): LeakyReLU(negative_slope=0.2, inplace=True)\n    |      )\n    |      (conv2): Sequential(\n    |        (0): Conv2d(96, 32, kernel_size=(3, 3), stride=(1, 1), padding=(1, 1))\n    |        (1): LeakyReLU(negative_slope=0.2, inplace=True)\n    |      )\n    |      (conv3): Sequential(\n    |        (0): Conv2d(128, 32, kernel_size=(3, 3), stride=(1, 1), padding=(1, 1))\n    |        (1): LeakyReLU(negative_slope=0.2, inplace=True)\n    |      )\n    |      (conv4): Sequential(\n    |        (0): Conv2d(160, 32, kernel_size=(3, 3), stride=(1, 1), padding=(1, 1))\n    |        (1): LeakyReLU(negative_slope=0.2, inplace=True)\n    |      )\n    |      (conv5): Sequential(\n    |        (0): Conv2d(192, 64, kernel_size=(3, 3), stride=(1, 1), padding=(1, 1))\n    |      )\n    |    )\n    |  )\n    |  (23): Conv2d(64, 64, kernel_size=(3, 3), stride=(1, 1), padding=(1, 1))\n    |)\n    (2): Upsample(scale_factor=2.0, mode='nearest')\n    (3): Conv2d(64, 64, kernel_size=(3, 3), stride=(1, 1), padding=(1, 1))\n    (4): LeakyReLU(negative_slope=0.2, inplace=True)\n    (5): Upsample(scale_factor=2.0, mode='nearest')\n    (6): Conv2d(64, 64, kernel_size=(3, 3), stride=(1, 1), padding=(1, 1))\n    (7): LeakyReLU(negative_slope=0.2, inplace=True)\n    (8): Conv2d(64, 64, kernel_size=(3, 3), stride=(1, 1), padding=(1, 1))\n    (9): LeakyReLU(negative_slope=0.2, inplace=True)\n    (10): Conv2d(64, 3, kernel_size=(3, 3), stride=(1, 1), padding=(1, 1))\n  )\n)"]}, {"id": 43, "type": "UpscaleModelLoader", "pos": [4260, 1440], "size": {"0": 315, "1": 58}, "flags": {}, "order": 13, "mode": 0, "outputs": [{"name": "UPSCALE_MODEL", "type": "UPSCALE_MODEL", "links": [34], "shape": 3, "slot_index": 0}], "properties": {"Node name for S&R": "UpscaleModelLoader"}, "widgets_values": ["RealESRGAN_x4.
…
